…
    "To build a model we make a class for out model and pass in nn.Module from torch. In the class initialization we call super so we can inherit the modules in nn. For simple models we will make the layers attributes of our class, however, more complex models use user defiend functions or even other classes to construct layers. Then we define the forward pass function that will dictate how output from one layer is fed into the next.\n",
    "\n",
    "For the sake of training on a GPU at home, simplicity, and ability to make changes easily I'm going to use a VGG-like network, but use the average pool idea at the end from the paper Going Deeper with Convolutions."
   ]
  },
  {
   "cell_type": "code",
   "execution_count": 5,
   "metadata": {},
   "outputs": [
    {
     "data": {
      "text/plain": [
       "CNN(\n",
       "  (conv1): Conv2d(3, 64, kernel_size=(3, 3), stride=(1, 1))\n",
       "  (conv2): Conv2d(64, 64, kernel_size=(3, 3), stride=(1, 1))\n",
       "  (pool): MaxPool2d(kernel_size=2, stride=1, padding=0, dilation=1, ceil_mode=False)\n",
       "  (bn1): BatchNorm2d(64, eps=1e-05, momentum=0.1, affine=True, track_running_stats=True)\n",
       "  (conv3): Conv2d(64, 128, kernel_size=(3, 3), stride=(1, 1))\n",
       "  (conv4): Conv2d(128, 128, kernel_size=(3, 3), stride=(1, 1))\n",
       "  (bn2): BatchNorm2d(128, eps=1e-05, momentum=0.1, affine=True, track_running_stats=True)\n",
       "  (conv5): Conv2d(128, 256, kernel_size=(3, 3), stride=(1, 1))\n",
       "  (conv6): Conv2d(256, 256, kernel_size=(3, 3), stride=(1, 1))\n",
       "  (conv7): Conv2d(256, 256, kernel_size=(3, 3), stride=(1, 1))\n",
       "  (conv8): Conv2d(256, 256, kernel_size=(3, 3), stride=(1, 1))\n",
       "  (bn3): BatchNorm2d(256, eps=1e-05, momentum=0.1, affine=True, track_running_stats=True)\n",
       "  (conv9): Conv2d(256, 512, kernel_size=(3, 3), stride=(1, 1))\n",
       "  (conv10): Conv2d(512, 512, kernel_size=(3, 3), stride=(1, 1))\n",
       "  (conv11): Conv2d(512, 512, kernel_size=(3, 3), stride=(1, 1))\n",
       "  (conv12): Conv2d(512, 512, kernel_size=(3, 3), stride=(1, 1))\n",
       "  (bn4): BatchNorm2d(512, eps=1e-05, momentum=0.1, affine=True, track_running_stats=True)\n",
       "  (globalpool): AvgPool2d(kernel_size=7, stride=7, padding=0)\n",
       "  (dropout): Dropout(p=0.4, inplace=False)\n",
       "  (fc1): Linear(in_features=512, out_features=10, bias=True)\n",
       ")"
      ]
     },
     "execution_count": 5,
     "metadata": {},
     "output_type": "execute_result"
    }
   ],
   "source": [
    "class CNN(nn.Module):\n",
    "    def __init__(self):\n",
    "        super(CNN, self).__init__()\n",
    "        \n",
    "        self.conv1 = nn.Conv2d(in_channels = 3, out_channels = 64, kernel_size = 3)\n",
…
